…
model = Dropout(0.5)(model)

model_output = Dense(1, activation='sigmoid')(model)

model = Model(inputs=model_input, outputs=model_output)

model.compile(loss='binary_crossentropy',
              optimizer='RMSProp',
              metrics=['accuracy'])

Model: "model_19"
__________________________________________________________________________________________________
Layer (type)                    Output Shape         Param #     Connected to                     
==================================================================================================
input_23 (InputLayer)           [(None, 112, 112, 1) 0                                            
__________________________________________________________________________________________________
conv2d_217 (Conv2D)             (None, 112, 112, 32) 320         input_23[0][0]                   
__________________________________________________________________________________________________
conv2d_218 (Conv2D)             (None, 110, 110, 32) 9248        conv2d_217[0][0]                 
__________________________________________________________________________________________________
batch_normalization_63 (BatchNo (None, 110, 110, 32) 128         conv2d_218[0][0]                 
__________________________________________________________________________________________________
max_pooling2d_70 (MaxPooling2D) (None, 55, 55, 32)   0           batch_normalization_63[0][0]     
__________________________________________________________________________________________________
conv2d_219 (Conv2D)             (None, 53, 53, 64)   18496       max_pooling2d_70[0][0]           
__________________________________________________________________________________________________
conv2d_220 (Conv2D)             (None, 51, 51, 64)   36928       conv2d_219[0][0]                 
__________________________________________________________________________________________________
batch_normalization_64 (BatchNo (None, 51, 51, 64)   256         conv2d_220[0][0]                 
__________________________________________________________________________________________________
max_pooling2d_71 (MaxPooling2D) (None, 25, 25, 64)   0           batch_normalization_64[0][0]     
__________________________________________________________________________________________________
conv2d_222 (Conv2D)             (None, 25, 25, 32)   2080        max_pooling2d_71[0][0]           
__________________________________________________________________________________________________
conv2d_224 (Conv2D)             (None, 25, 25, 24)   1560        max_pooling2d_71[0][0]           
__________________________________________________________________________________________________
max_pooling2d_72 (MaxPooling2D) (None, 25, 25, 64)   0           max_pooling2d_71[0][0]           
__________________________________________________________________________________________________
conv2d_221 (Conv2D)             (None, 25, 25, 48)   3120        max_pooling2d_71[0][0]           
__________________________________________________________________________________________________
conv2d_223 (Conv2D)             (None, 25, 25, 32)   9248        conv2d_222[0][0]                 
__________________________________________________________________________________________________
conv2d_225 (Conv2D)             (None, 25, 25, 32)   19232       conv2d_224[0][0]                 
__________________________________________________________________________________________________
conv2d_226 (Conv2D)             (None, 25, 25, 48)   3120        max_pooling2d_72[0][0]           
__________________________________________________________________________________________________
concatenate_22 (Concatenate)    (None, 25, 25, 160)  0           conv2d_221[0][0]                 
                                                                 conv2d_223[0][0]                 
                                                                 conv2d_225[0][0]                 
                                                                 conv2d_226[0][0]                 
__________________________________________________________________________________________________
separable_conv2d_21 (SeparableC (None, 23, 23, 128)  22048       concatenate_22[0][0]             
__________________________________________________________________________________________________
separable_conv2d_22 (SeparableC (None, 21, 21, 80)   11472       separable_conv2d_21[0][0]        
__________________________________________________________________________________________________
batch_normalization_65 (BatchNo (None, 21, 21, 80)   320         separable_conv2d_22[0][0]        
__________________________________________________________________________________________________
conv2d_227 (Conv2D)             (None, 21, 21, 48)   3888        batch_normalization_65[0][0]     
__________________________________________________________________________________________________
batch_normalization_66 (BatchNo (None, 21, 21, 48)   192         conv2d_227[0][0]                 
__________________________________________________________________________________________________
max_pooling2d_73 (MaxPooling2D) (None, 10, 10, 48)   0           batch_normalization_66[0][0]     
__________________________________________________________________________________________________
flatten_19 (Flatten)            (None, 4800)         0           max_pooling2d_73[0][0]           
__________________________________________________________________________________________________
dense_38 (Dense)                (None, 128)          614528      flatten_19[0][0]                 
__________________________________________________________________________________________________
dropout_19 (Dropout)            (None, 128)          0           dense_38[0][0]                   
__________________________________________________________________________________________________
dense_39 (Dense)                (None, 1)            129         dropout_19[0][0]                 
==================================================================================================
Total params: 756,313
Trainable params: 755,865
Non-trainable params: 448
__________________________________________________________________________________________________

WARNING:tensorflow:sample_weight modes were coerced from
  ...
    to  
  ['...']
WARNING:tensorflow:sample_weight modes were coerced from
…
