…
model = Dropout(0.5)(model)

model_output = Dense(1, activation='sigmoid')(model)

model = Model(inputs=model_input, outputs=model_output)

model.compile(loss='binary_crossentropy',
              optimizer='RMSProp',
              metrics=['accuracy'])

Model: "model_4"
__________________________________________________________________________________________________
Layer (type)                    Output Shape         Param #     Connected to                     
==================================================================================================
input_8 (InputLayer)            [(None, 112, 112, 1) 0                                            
__________________________________________________________________________________________________
conv2d_64 (Conv2D)              (None, 112, 112, 16) 160         input_8[0][0]                    
__________________________________________________________________________________________________
conv2d_65 (Conv2D)              (None, 110, 110, 32) 4640        conv2d_64[0][0]                  
__________________________________________________________________________________________________
batch_normalization_15 (BatchNo (None, 110, 110, 32) 128         conv2d_65[0][0]                  
__________________________________________________________________________________________________
max_pooling2d_22 (MaxPooling2D) (None, 55, 55, 32)   0           batch_normalization_15[0][0]     
__________________________________________________________________________________________________
conv2d_66 (Conv2D)              (None, 53, 53, 64)   18496       max_pooling2d_22[0][0]           
__________________________________________________________________________________________________
conv2d_67 (Conv2D)              (None, 51, 51, 96)   55392       conv2d_66[0][0]                  
__________________________________________________________________________________________________
batch_normalization_16 (BatchNo (None, 51, 51, 96)   384         conv2d_67[0][0]                  
__________________________________________________________________________________________________
max_pooling2d_23 (MaxPooling2D) (None, 25, 25, 96)   0           batch_normalization_16[0][0]     
__________________________________________________________________________________________________
conv2d_69 (Conv2D)              (None, 25, 25, 32)   3104        max_pooling2d_23[0][0]           
__________________________________________________________________________________________________
conv2d_71 (Conv2D)              (None, 25, 25, 32)   3104        max_pooling2d_23[0][0]           
__________________________________________________________________________________________________
max_pooling2d_24 (MaxPooling2D) (None, 25, 25, 96)   0           max_pooling2d_23[0][0]           
__________________________________________________________________________________________________
conv2d_68 (Conv2D)              (None, 25, 25, 32)   3104        max_pooling2d_23[0][0]           
__________________________________________________________________________________________________
conv2d_70 (Conv2D)              (None, 25, 25, 64)   18496       conv2d_69[0][0]                  
__________________________________________________________________________________________________
conv2d_72 (Conv2D)              (None, 25, 25, 64)   51264       conv2d_71[0][0]                  
__________________________________________________________________________________________________
conv2d_73 (Conv2D)              (None, 25, 25, 32)   3104        max_pooling2d_24[0][0]           
__________________________________________________________________________________________________
concatenate_7 (Concatenate)     (None, 25, 25, 192)  0           conv2d_68[0][0]                  
                                                                 conv2d_70[0][0]                  
                                                                 conv2d_72[0][0]                  
                                                                 conv2d_73[0][0]                  
__________________________________________________________________________________________________
depthwise_conv2d_3 (DepthwiseCo (None, 23, 23, 192)  1920        concatenate_7[0][0]              
__________________________________________________________________________________________________
separable_conv2d_6 (SeparableCo (None, 21, 21, 96)   20256       depthwise_conv2d_3[0][0]         
__________________________________________________________________________________________________
batch_normalization_17 (BatchNo (None, 21, 21, 96)   384         separable_conv2d_6[0][0]         
__________________________________________________________________________________________________
flatten_4 (Flatten)             (None, 42336)        0           batch_normalization_17[0][0]     
__________________________________________________________________________________________________
dense_8 (Dense)                 (None, 128)          5419136     flatten_4[0][0]                  
__________________________________________________________________________________________________
dropout_4 (Dropout)             (None, 128)          0           dense_8[0][0]                    
__________________________________________________________________________________________________
dense_9 (Dense)                 (None, 1)            129         dropout_4[0][0]                  
==================================================================================================
Total params: 5,603,201
Trainable params: 5,602,753
Non-trainable params: 448
__________________________________________________________________________________________________

WARNING:tensorflow:sample_weight modes were coerced from
  ...
    to  
  ['...']
…
