…
model = Dropout(0.5)(model)

model_output = Dense(1, activation='sigmoid')(model)

model = Model(inputs=model_input, outputs=model_output)

model.compile(loss='binary_crossentropy',
              optimizer='RMSProp',
              metrics=['accuracy'])

Model: "model_21"
__________________________________________________________________________________________________
Layer (type)                    Output Shape         Param #     Connected to                     
==================================================================================================
input_25 (InputLayer)           [(None, 112, 112, 1) 0                                            
__________________________________________________________________________________________________
conv2d_239 (Conv2D)             (None, 112, 112, 32) 320         input_25[0][0]                   
__________________________________________________________________________________________________
conv2d_240 (Conv2D)             (None, 110, 110, 32) 9248        conv2d_239[0][0]                 
__________________________________________________________________________________________________
batch_normalization_76 (BatchNo (None, 110, 110, 32) 128         conv2d_240[0][0]                 
__________________________________________________________________________________________________
max_pooling2d_78 (MaxPooling2D) (None, 55, 55, 32)   0           batch_normalization_76[0][0]     
__________________________________________________________________________________________________
conv2d_241 (Conv2D)             (None, 53, 53, 64)   18496       max_pooling2d_78[0][0]           
__________________________________________________________________________________________________
conv2d_242 (Conv2D)             (None, 51, 51, 64)   36928       conv2d_241[0][0]                 
__________________________________________________________________________________________________
batch_normalization_77 (BatchNo (None, 51, 51, 64)   256         conv2d_242[0][0]                 
__________________________________________________________________________________________________
max_pooling2d_79 (MaxPooling2D) (None, 25, 25, 64)   0           batch_normalization_77[0][0]     
__________________________________________________________________________________________________
conv2d_244 (Conv2D)             (None, 25, 25, 48)   3120        max_pooling2d_79[0][0]           
__________________________________________________________________________________________________
conv2d_246 (Conv2D)             (None, 25, 25, 48)   3120        max_pooling2d_79[0][0]           
__________________________________________________________________________________________________
max_pooling2d_80 (MaxPooling2D) (None, 25, 25, 64)   0           max_pooling2d_79[0][0]           
__________________________________________________________________________________________________
conv2d_243 (Conv2D)             (None, 25, 25, 48)   3120        max_pooling2d_79[0][0]           
__________________________________________________________________________________________________
conv2d_245 (Conv2D)             (None, 25, 25, 32)   13856       conv2d_244[0][0]                 
__________________________________________________________________________________________________
conv2d_247 (Conv2D)             (None, 25, 25, 32)   38432       conv2d_246[0][0]                 
__________________________________________________________________________________________________
conv2d_248 (Conv2D)             (None, 25, 25, 48)   3120        max_pooling2d_80[0][0]           
__________________________________________________________________________________________________
concatenate_24 (Concatenate)    (None, 25, 25, 160)  0           conv2d_243[0][0]                 
                                                                 conv2d_245[0][0]                 
                                                                 conv2d_247[0][0]                 
                                                                 conv2d_248[0][0]                 
__________________________________________________________________________________________________
separable_conv2d_25 (SeparableC (None, 23, 23, 120)  20760       concatenate_24[0][0]             
__________________________________________________________________________________________________
batch_normalization_78 (BatchNo (None, 23, 23, 120)  480         separable_conv2d_25[0][0]        
__________________________________________________________________________________________________
separable_conv2d_26 (SeparableC (None, 21, 21, 80)   10760       batch_normalization_78[0][0]     
__________________________________________________________________________________________________
batch_normalization_79 (BatchNo (None, 21, 21, 80)   320         separable_conv2d_26[0][0]        
__________________________________________________________________________________________________
conv2d_249 (Conv2D)             (None, 21, 21, 48)   3888        batch_normalization_79[0][0]     
__________________________________________________________________________________________________
batch_normalization_80 (BatchNo (None, 21, 21, 48)   192         conv2d_249[0][0]                 
__________________________________________________________________________________________________
max_pooling2d_81 (MaxPooling2D) (None, 10, 10, 48)   0           batch_normalization_80[0][0]     
__________________________________________________________________________________________________
flatten_21 (Flatten)            (None, 4800)         0           max_pooling2d_81[0][0]           
__________________________________________________________________________________________________
dense_42 (Dense)                (None, 128)          614528      flatten_21[0][0]                 
__________________________________________________________________________________________________
dropout_21 (Dropout)            (None, 128)          0           dense_42[0][0]                   
__________________________________________________________________________________________________
dense_43 (Dense)                (None, 1)            129         dropout_21[0][0]                 
==================================================================================================
Total params: 781,201
Trainable params: 780,513
Non-trainable params: 688
__________________________________________________________________________________________________

WARNING:tensorflow:sample_weight modes were coerced from
  ...
    to  
  ['...']
WARNING:tensorflow:sample_weight modes were coerced from
…
