…
model = BatchNormalization()(model)

model_output = Dense(1, activation='sigmoid')(model)

model = Model(inputs=model_input, outputs=model_output)


model.compile(loss='binary_crossentropy',
              optimizer='RMSProp',
              metrics=['accuracy'])


Model: "model_22"
__________________________________________________________________________________________________
Layer (type)                    Output Shape         Param #     Connected to                     
==================================================================================================
input_36 (InputLayer)           [(None, 128, 128, 1) 0                                            
__________________________________________________________________________________________________
conv2d_487 (Conv2D)             (None, 128, 128, 32) 320         input_36[0][0]                   
__________________________________________________________________________________________________
conv2d_488 (Conv2D)             (None, 128, 128, 32) 9248        conv2d_487[0][0]                 
__________________________________________________________________________________________________
batch_normalization_145 (BatchN (None, 128, 128, 32) 128         conv2d_488[0][0]                 
__________________________________________________________________________________________________
conv2d_489 (Conv2D)             (None, 128, 128, 64) 18496       batch_normalization_145[0][0]    
__________________________________________________________________________________________________
conv2d_490 (Conv2D)             (None, 128, 128, 64) 36928       conv2d_489[0][0]                 
__________________________________________________________________________________________________
batch_normalization_146 (BatchN (None, 128, 128, 64) 256         conv2d_490[0][0]                 
__________________________________________________________________________________________________
conv2d_491 (Conv2D)             (None, 128, 128, 96) 55392       batch_normalization_146[0][0]    
__________________________________________________________________________________________________
conv2d_492 (Conv2D)             (None, 128, 128, 96) 83040       conv2d_491[0][0]                 
__________________________________________________________________________________________________
batch_normalization_147 (BatchN (None, 128, 128, 96) 384         conv2d_492[0][0]                 
__________________________________________________________________________________________________
conv2d_494 (Conv2D)             (None, 128, 128, 64) 6208        batch_normalization_147[0][0]    
__________________________________________________________________________________________________
conv2d_493 (Conv2D)             (None, 63, 63, 64)   55360       batch_normalization_147[0][0]    
__________________________________________________________________________________________________
max_pooling2d_126 (MaxPooling2D (None, 63, 63, 64)   0           conv2d_494[0][0]                 
__________________________________________________________________________________________________
concatenate_126 (Concatenate)   (None, 63, 63, 128)  0           conv2d_493[0][0]                 
                                                                 max_pooling2d_126[0][0]          
__________________________________________________________________________________________________
conv2d_496 (Conv2D)             (None, 63, 63, 96)   12384       concatenate_126[0][0]            
__________________________________________________________________________________________________
conv2d_495 (Conv2D)             (None, 31, 31, 96)   110688      concatenate_126[0][0]            
__________________________________________________________________________________________________
max_pooling2d_127 (MaxPooling2D (None, 31, 31, 96)   0           conv2d_496[0][0]                 
__________________________________________________________________________________________________
concatenate_127 (Concatenate)   (None, 31, 31, 192)  0           conv2d_495[0][0]                 
                                                                 max_pooling2d_127[0][0]          
__________________________________________________________________________________________________
conv2d_498 (Conv2D)             (None, 31, 31, 128)  24704       concatenate_127[0][0]            
__________________________________________________________________________________________________
conv2d_500 (Conv2D)             (None, 31, 31, 128)  24704       concatenate_127[0][0]            
__________________________________________________________________________________________________
conv2d_497 (Conv2D)             (None, 31, 31, 128)  24704       concatenate_127[0][0]            
__________________________________________________________________________________________________
batch_normalization_149 (BatchN (None, 31, 31, 128)  512         conv2d_498[0][0]                 
__________________________________________________________________________________________________
batch_normalization_150 (BatchN (None, 31, 31, 128)  512         conv2d_500[0][0]                 
__________________________________________________________________________________________________
max_pooling2d_128 (MaxPooling2D (None, 31, 31, 192)  0           concatenate_127[0][0]            
__________________________________________________________________________________________________
batch_normalization_148 (BatchN (None, 31, 31, 128)  512         conv2d_497[0][0]                 
__________________________________________________________________________________________________
conv2d_499 (Conv2D)             (None, 31, 31, 96)   110688      batch_normalization_149[0][0]    
__________________________________________________________________________________________________
conv2d_501 (Conv2D)             (None, 31, 31, 96)   307296      batch_normalization_150[0][0]    
__________________________________________________________________________________________________
conv2d_502 (Conv2D)             (None, 31, 31, 128)  24704       max_pooling2d_128[0][0]          
__________________________________________________________________________________________________
concatenate_128 (Concatenate)   (None, 31, 31, 448)  0           batch_normalization_148[0][0]    
                                                                 conv2d_499[0][0]                 
                                                                 conv2d_501[0][0]                 
                                                                 conv2d_502[0][0]                 
__________________________________________________________________________________________________
conv2d_503 (Conv2D)             (None, 15, 15, 320)  1290560     concatenate_128[0][0]            
__________________________________________________________________________________________________
max_pooling2d_129 (MaxPooling2D (None, 15, 15, 448)  0           concatenate_128[0][0]            
__________________________________________________________________________________________________
batch_normalization_151 (BatchN (None, 15, 15, 320)  1280        conv2d_503[0][0]                 
__________________________________________________________________________________________________
conv2d_504 (Conv2D)             (None, 15, 15, 320)  143680      max_pooling2d_129[0][0]          
__________________________________________________________________________________________________
concatenate_129 (Concatenate)   (None, 15, 15, 640)  0           batch_normalization_151[0][0]    
                                                                 conv2d_504[0][0]                 
__________________________________________________________________________________________________
average_pooling2d_25 (AveragePo (None, 1, 1, 640)    0           concatenate_129[0][0]            
__________________________________________________________________________________________________
flatten_22 (Flatten)            (None, 640)          0           average_pooling2d_25[0][0]       
__________________________________________________________________________________________________
dense_49 (Dense)                (None, 128)          82048       flatten_22[0][0]                 
__________________________________________________________________________________________________
batch_normalization_152 (BatchN (None, 128)          512         dense_49[0][0]                   
__________________________________________________________________________________________________
dense_50 (Dense)                (None, 1)            129         batch_normalization_152[0][0]    
==================================================================================================
Total params: 2,425,377
Trainable params: 2,423,329
Non-trainable params: 2,048
__________________________________________________________________________________________________

WARNING:tensorflow:sample_weight modes were coerced from
  ...
    to  
  ['...']
…
