…
model = Dense(128, activation='relu')(model)

model = Dropout(0.5)(model)

model_output = Dense(1, activation='sigmoid')(model)

model = Model(inputs=model_input, outputs=model_output)

model.compile(loss='binary_crossentropy',
              optimizer='adam',
              metrics=['accuracy'])

Model: "model"
__________________________________________________________________________________________________
Layer (type)                    Output Shape         Param #     Connected to                     
==================================================================================================
input_3 (InputLayer)            [(None, 112, 112, 1) 0                                            
__________________________________________________________________________________________________
conv2d_16 (Conv2D)              (None, 112, 112, 64) 640         input_3[0][0]                    
__________________________________________________________________________________________________
max_pooling2d_6 (MaxPooling2D)  (None, 56, 56, 64)   0           conv2d_16[0][0]                  
__________________________________________________________________________________________________
conv2d_17 (Conv2D)              (None, 56, 56, 192)  110784      max_pooling2d_6[0][0]            
__________________________________________________________________________________________________
batch_normalization_2 (BatchNor (None, 56, 56, 192)  768         conv2d_17[0][0]                  
__________________________________________________________________________________________________
max_pooling2d_7 (MaxPooling2D)  (None, 28, 28, 192)  0           batch_normalization_2[0][0]      
__________________________________________________________________________________________________
conv2d_19 (Conv2D)              (None, 28, 28, 96)   18528       max_pooling2d_7[0][0]            
__________________________________________________________________________________________________
conv2d_21 (Conv2D)              (None, 28, 28, 16)   3088        max_pooling2d_7[0][0]            
__________________________________________________________________________________________________
max_pooling2d_8 (MaxPooling2D)  (None, 28, 28, 192)  0           max_pooling2d_7[0][0]            
__________________________________________________________________________________________________
conv2d_18 (Conv2D)              (None, 28, 28, 64)   12352       max_pooling2d_7[0][0]            
__________________________________________________________________________________________________
conv2d_20 (Conv2D)              (None, 28, 28, 128)  110720      conv2d_19[0][0]                  
__________________________________________________________________________________________________
conv2d_22 (Conv2D)              (None, 28, 28, 32)   12832       conv2d_21[0][0]                  
__________________________________________________________________________________________________
conv2d_23 (Conv2D)              (None, 28, 28, 32)   6176        max_pooling2d_8[0][0]            
__________________________________________________________________________________________________
concatenate_2 (Concatenate)     (None, 28, 28, 256)  0           conv2d_18[0][0]                  
                                                                 conv2d_20[0][0]                  
                                                                 conv2d_22[0][0]                  
                                                                 conv2d_23[0][0]                  
__________________________________________________________________________________________________
separable_conv2d_2 (SeparableCo (None, 26, 26, 128)  35200       concatenate_2[0][0]              
__________________________________________________________________________________________________
batch_normalization_3 (BatchNor (None, 26, 26, 128)  512         separable_conv2d_2[0][0]         
__________________________________________________________________________________________________
max_pooling2d_9 (MaxPooling2D)  (None, 13, 13, 128)  0           batch_normalization_3[0][0]      
__________________________________________________________________________________________________
flatten (Flatten)               (None, 21632)        0           max_pooling2d_9[0][0]            
__________________________________________________________________________________________________
dense (Dense)                   (None, 128)          2769024     flatten[0][0]                    
__________________________________________________________________________________________________
dropout (Dropout)               (None, 128)          0           dense[0][0]                      
__________________________________________________________________________________________________
dense_1 (Dense)                 (None, 1)            129         dropout[0][0]                    
==================================================================================================
Total params: 3,080,753
Trainable params: 3,080,113
Non-trainable params: 640
__________________________________________________________________________________________________


WARNING:tensorflow:sample_weight modes were coerced from
  ...
    to  
  ['...']
…
