…
# model = BatchNormalization()(model)

model_output = Dense(1, activation='sigmoid')(model)

model = Model(inputs=model_input, outputs=model_output)


model.compile(loss='binary_crossentropy',
              optimizer='RMSProp',
              metrics=['accuracy'])

Model: "model_13"
__________________________________________________________________________________________________
Layer (type)                    Output Shape         Param #     Connected to                     
==================================================================================================
input_19 (InputLayer)           [(None, 128, 128, 1) 0                                            
__________________________________________________________________________________________________
conv2d_221 (Conv2D)             (None, 128, 128, 32) 320         input_19[0][0]                   
__________________________________________________________________________________________________
conv2d_222 (Conv2D)             (None, 128, 128, 32) 9248        conv2d_221[0][0]                 
__________________________________________________________________________________________________
batch_normalization_69 (BatchNo (None, 128, 128, 32) 128         conv2d_222[0][0]                 
__________________________________________________________________________________________________
conv2d_223 (Conv2D)             (None, 126, 126, 64) 18496       batch_normalization_69[0][0]     
__________________________________________________________________________________________________
conv2d_224 (Conv2D)             (None, 124, 124, 64) 36928       conv2d_223[0][0]                 
__________________________________________________________________________________________________
batch_normalization_70 (BatchNo (None, 124, 124, 64) 256         conv2d_224[0][0]                 
__________________________________________________________________________________________________
conv2d_225 (Conv2D)             (None, 122, 122, 96) 55392       batch_normalization_70[0][0]     
__________________________________________________________________________________________________
conv2d_226 (Conv2D)             (None, 120, 120, 96) 83040       conv2d_225[0][0]                 
__________________________________________________________________________________________________
batch_normalization_71 (BatchNo (None, 120, 120, 96) 384         conv2d_226[0][0]                 
__________________________________________________________________________________________________
conv2d_227 (Conv2D)             (None, 60, 60, 96)   83040       batch_normalization_71[0][0]     
__________________________________________________________________________________________________
max_pooling2d_67 (MaxPooling2D) (None, 60, 60, 96)   0           batch_normalization_71[0][0]     
__________________________________________________________________________________________________
concatenate_67 (Concatenate)    (None, 60, 60, 192)  0           conv2d_227[0][0]                 
                                                                 max_pooling2d_67[0][0]           
__________________________________________________________________________________________________
conv2d_229 (Conv2D)             (None, 60, 60, 128)  24704       concatenate_67[0][0]             
__________________________________________________________________________________________________
conv2d_228 (Conv2D)             (None, 30, 30, 128)  221312      concatenate_67[0][0]             
__________________________________________________________________________________________________
max_pooling2d_68 (MaxPooling2D) (None, 30, 30, 128)  0           conv2d_229[0][0]                 
__________________________________________________________________________________________________
concatenate_68 (Concatenate)    (None, 30, 30, 256)  0           conv2d_228[0][0]                 
                                                                 max_pooling2d_68[0][0]           
__________________________________________________________________________________________________
conv2d_231 (Conv2D)             (None, 30, 30, 128)  32896       concatenate_68[0][0]             
__________________________________________________________________________________________________
conv2d_233 (Conv2D)             (None, 30, 30, 128)  32896       concatenate_68[0][0]             
__________________________________________________________________________________________________
max_pooling2d_69 (MaxPooling2D) (None, 30, 30, 256)  0           concatenate_68[0][0]             
__________________________________________________________________________________________________
conv2d_230 (Conv2D)             (None, 30, 30, 128)  32896       concatenate_68[0][0]             
__________________________________________________________________________________________________
conv2d_232 (Conv2D)             (None, 30, 30, 96)   110688      conv2d_231[0][0]                 
__________________________________________________________________________________________________
conv2d_234 (Conv2D)             (None, 30, 30, 96)   307296      conv2d_233[0][0]                 
__________________________________________________________________________________________________
conv2d_235 (Conv2D)             (None, 30, 30, 128)  32896       max_pooling2d_69[0][0]           
__________________________________________________________________________________________________
concatenate_69 (Concatenate)    (None, 30, 30, 448)  0           conv2d_230[0][0]                 
                                                                 conv2d_232[0][0]                 
                                                                 conv2d_234[0][0]                 
                                                                 conv2d_235[0][0]                 
__________________________________________________________________________________________________
depthwise_conv2d_34 (DepthwiseC (None, 30, 30, 448)  4480        concatenate_69[0][0]             
__________________________________________________________________________________________________
depthwise_conv2d_35 (DepthwiseC (None, 15, 15, 448)  4480        depthwise_conv2d_34[0][0]        
__________________________________________________________________________________________________
conv2d_236 (Conv2D)             (None, 30, 30, 320)  143680      concatenate_69[0][0]             
__________________________________________________________________________________________________
batch_normalization_72 (BatchNo (None, 15, 15, 448)  1792        depthwise_conv2d_35[0][0]        
__________________________________________________________________________________________________
max_pooling2d_70 (MaxPooling2D) (None, 15, 15, 320)  0           conv2d_236[0][0]                 
__________________________________________________________________________________________________
concatenate_70 (Concatenate)    (None, 15, 15, 768)  0           batch_normalization_72[0][0]     
                                                                 max_pooling2d_70[0][0]           
__________________________________________________________________________________________________
average_pooling2d_14 (AveragePo (None, 1, 1, 768)    0           concatenate_70[0][0]             
__________________________________________________________________________________________________
flatten_13 (Flatten)            (None, 768)          0           average_pooling2d_14[0][0]       
__________________________________________________________________________________________________
dense_31 (Dense)                (None, 128)          98432       flatten_13[0][0]                 
__________________________________________________________________________________________________
batch_normalization_73 (BatchNo (None, 128)          512         dense_31[0][0]                   
__________________________________________________________________________________________________
dense_32 (Dense)                (None, 1)            129         batch_normalization_73[0][0]     
==================================================================================================
Total params: 1,336,321
Trainable params: 1,334,785
Non-trainable params: 1,536
__________________________________________________________________________________________________

WARNING:tensorflow:sample_weight modes were coerced from
  ...
    to  
  ['...']
…
