…
model = Dropout(0.5)(model)

model_output = Dense(1, activation='sigmoid')(model)

model = Model(inputs=model_input, outputs=model_output)

model.compile(loss='binary_crossentropy',
              optimizer='RMSProp',
              metrics=['accuracy'])

Model: "model_18"
__________________________________________________________________________________________________
Layer (type)                    Output Shape         Param #     Connected to                     
==================================================================================================
input_22 (InputLayer)           [(None, 112, 112, 1) 0                                            
__________________________________________________________________________________________________
conv2d_206 (Conv2D)             (None, 112, 112, 16) 160         input_22[0][0]                   
__________________________________________________________________________________________________
conv2d_207 (Conv2D)             (None, 110, 110, 32) 4640        conv2d_206[0][0]                 
__________________________________________________________________________________________________
batch_normalization_59 (BatchNo (None, 110, 110, 32) 128         conv2d_207[0][0]                 
__________________________________________________________________________________________________
max_pooling2d_66 (MaxPooling2D) (None, 55, 55, 32)   0           batch_normalization_59[0][0]     
__________________________________________________________________________________________________
conv2d_208 (Conv2D)             (None, 53, 53, 64)   18496       max_pooling2d_66[0][0]           
__________________________________________________________________________________________________
conv2d_209 (Conv2D)             (None, 51, 51, 96)   55392       conv2d_208[0][0]                 
__________________________________________________________________________________________________
batch_normalization_60 (BatchNo (None, 51, 51, 96)   384         conv2d_209[0][0]                 
__________________________________________________________________________________________________
max_pooling2d_67 (MaxPooling2D) (None, 25, 25, 96)   0           batch_normalization_60[0][0]     
__________________________________________________________________________________________________
conv2d_211 (Conv2D)             (None, 25, 25, 48)   4656        max_pooling2d_67[0][0]           
__________________________________________________________________________________________________
conv2d_213 (Conv2D)             (None, 25, 25, 32)   3104        max_pooling2d_67[0][0]           
__________________________________________________________________________________________________
max_pooling2d_68 (MaxPooling2D) (None, 25, 25, 96)   0           max_pooling2d_67[0][0]           
__________________________________________________________________________________________________
conv2d_210 (Conv2D)             (None, 25, 25, 64)   6208        max_pooling2d_67[0][0]           
__________________________________________________________________________________________________
conv2d_212 (Conv2D)             (None, 25, 25, 64)   27712       conv2d_211[0][0]                 
__________________________________________________________________________________________________
conv2d_214 (Conv2D)             (None, 25, 25, 48)   38448       conv2d_213[0][0]                 
__________________________________________________________________________________________________
conv2d_215 (Conv2D)             (None, 25, 25, 80)   7760        max_pooling2d_68[0][0]           
__________________________________________________________________________________________________
concatenate_21 (Concatenate)    (None, 25, 25, 256)  0           conv2d_210[0][0]                 
                                                                 conv2d_212[0][0]                 
                                                                 conv2d_214[0][0]                 
                                                                 conv2d_215[0][0]                 
__________________________________________________________________________________________________
depthwise_conv2d_17 (DepthwiseC (None, 23, 23, 256)  2560        concatenate_21[0][0]             
__________________________________________________________________________________________________
separable_conv2d_20 (SeparableC (None, 21, 21, 128)  35200       depthwise_conv2d_17[0][0]        
__________________________________________________________________________________________________
batch_normalization_61 (BatchNo (None, 21, 21, 128)  512         separable_conv2d_20[0][0]        
__________________________________________________________________________________________________
conv2d_216 (Conv2D)             (None, 21, 21, 80)   10320       batch_normalization_61[0][0]     
__________________________________________________________________________________________________
batch_normalization_62 (BatchNo (None, 21, 21, 80)   320         conv2d_216[0][0]                 
__________________________________________________________________________________________________
max_pooling2d_69 (MaxPooling2D) (None, 10, 10, 80)   0           batch_normalization_62[0][0]     
__________________________________________________________________________________________________
flatten_18 (Flatten)            (None, 8000)         0           max_pooling2d_69[0][0]           
__________________________________________________________________________________________________
dense_36 (Dense)                (None, 128)          1024128     flatten_18[0][0]                 
__________________________________________________________________________________________________
dropout_18 (Dropout)            (None, 128)          0           dense_36[0][0]                   
__________________________________________________________________________________________________
dense_37 (Dense)                (None, 1)            129         dropout_18[0][0]                 
==================================================================================================
Total params: 1,240,257
Trainable params: 1,239,585
Non-trainable params: 672
__________________________________________________________________________________________________

WARNING:tensorflow:sample_weight modes were coerced from
  ...
    to  
  ['...']
…
